chatbot/data.pth (torch, 6442 bytes, 6 tensors)

l1.weight f4 [8, 74]
00000000: 53be b6bd 85ae 213f 835d f2bc 99d9 f23e
00000010: 90a1 013f 111f b13e 6413 9bbe 6c15 653e
00000020: 59d6 003f a6cb cbbe d457 08be a228 1b3e
00000030: 5565 62be d805 d8be 38a2 4d3e 1a81 263f
00000040: c8b9 e3bd c908 c33e ed38 253e bfcc 863d
00000050: f9bb 1c3e e8f1 da3b 56d5 333e 0e50 5e3e
00000060: 5015 1dbe 3fa4 d93d 7fcd 9c3e a889 93be
00000070: e5b4 2e3f 0736 d43e 6310 143f 8308 d8be
00000080: 310b f2be f1d3 363e 4534 f33e 1fed de3e
00000090: d006 d8be 3f13 d8be 1e91 a53b e329 e23d
000000a0: 1944 1e3f a25f 593e e470 563e 880d 023d
000000b0: 8c7a 97be 638a e43d eba4 b33e 3bf8 013f
000000c0: a957 263e d0ed 3c3e fff5 c93e 31b0 67bd
000000d0: dd92 09bd 35b3 233f ce99 283f 850d 053f
000000e0: 41f7 a2bd b14f 78be 7708 073f 363a 873e
000000f0: 9d8d c53e bc86 283f 4dbe 0a3f c811 453e
00000100: 91e9 0c3f f0a4 db3e dc1e a8be a65d 97be
00000110: 079d 9c3e f78a d63e 9131 133f c32e fe3e
00000120: e982 2d3f 6eee ebbc d7f0 9bbe 2c03 e43e
00000130: 53e3 e13d fb32 b13e c2db 113e a2ce f23e
00000140: 212f c23e eeeb 0e3f c579 f93e 05a3 f33e
00000150: fae9 003e abcb b03e 446a 94be fcf0 263f
00000160: b890 df3e 1a53 c33e cb4e a3be 9327 493e
00000170: bd1e 1d3f b9d5 d13e 297a 1a3f baf9 88be
00000180: d14f f23e 63d5 d43e c2a9 e9bd dec0 80be
00000190: b8f6 81be ca4b ccbe f176 ba3e 4a67 d03e
000001a0: ba0a 863e 256f 4c3f f202 11bf 1387 98be
000001b0: ac7e 133f 839c 9f3e cd56 2e3f 2015 303f
000001c0: 6ca1 223f 665e 34be 7d30 6e3e 2de8 d83e
000001d0: 491f fb3e 799b ff3e 4c42 c0ba 1de0 153f
000001e0: e512 0e3f 9430 2b3e e00a a8be 198f 153f
000001f0: 5d72 bd3e 8517 1fbe ac14 bfbe 5d31 e3bc
00000200: d53b 023d f023 ef3e 53ca 763e 8d86 22be
00000210: 1df7 013f 2adf 063f 494c d23e f878 4b3e
00000220: 009b c33e 033c 92be 3d33 c33e 3bee 9c3e
00000230: 5c87 ca3e 3221 babe ddd1 843e 5a72 d53e
00000240: 6fd3 f83e f139 b13e 4846 883e 90d7 8c3e
00000250: c267 c03e 9f51 1bbc 24b9 9f3e 5255 cabe
00000260: fda7 57be 7e91 03bf 3ffa 0e3f d2f5 b6be
00000270: e3a8 cabe 3586 0f3f ad7d cc3e b0b0 0dbf
00000280: cb31 133f edb6 253f 2c66 7bbe c7ea 7dbd
00000290: b429 133f e699 40be 1a14 e1be 9889 87be
000002a0: 6a0c 9fbe 21f3 cbbe 0e69 99be cd3f 0cbf
000002b0: 846a 093f a3a6 bdbe 1b18 e83e fb9b 0b3f
000002c0: 9e2a 6fbe f7cc 043f ef29 f5bd dd76 323f
000002d0: 15e9 163f d8ed 46be 3141 0b3f 37ca fd3e
000002e0: 51dd 0b3f 6ad6 163f 44cc 3b3f cb2e 8dbe
000002f0: 4134 ea3e 9a3e 3ebe 72cb 4b3e 1c38 d8be
00000300: 6aed ae3e 5e2b eabe 5f27 103f 0b78 16be
00000310: 524b 16be c843 82be 219a c83b 3003 e33e
00000320: c76a e53e da62 ec3e 47ee 9cbe c5ff 9dbe
00000330: 3743 593e 8633 d03e 67b7 8fbe 5a65 a6be
00000340: 7869 cb3e 3a7a b1be 859a 073f 5e35 d4bd
00000350: 297e 72be 9bce 063f 175c 1e3f 186f 163f
00000360: 05d4 c8be 3cb1 f63e 0e10 35be 41ac 46bd
00000370: b4a3 3a3e d40c 693e 9f53 fa3e fd3b f8bb
00000380: 1bff abbd 146b f93e 0259 783e 617c 46be
00000390: f0cc df3e 2f78 bc3e 7fba 1dbe f268 e53e
000003a0: 64b4 14be 57a8 4cbe 75f6 c4be 5e93 37bf
000003b0: e0b4 cc3e 3340 173f e90f 86be 4c5d 843e
000003c0: 31bd c43e e96f d53e 5658 b53e 160c f33e
000003d0: 1fbc d53e 70c4 cdbe f670 7dbe 9eb3 163f
000003e0: 802f 323d b5fa 8dbe 8a74 863e 0f57 d03e
000003f0: 63bc 643e 2695 37bf 5c7e 1f3e ec0e 163f
-0.0892302 0.6315692 -0.029585605 0.4743164 0.5063715 0.34594014 -0.3028823 0.22371453
0.5032707 -0.3980381 -0.13314754 0.15152219 -0.22108968 -0.42191958 0.20081413 0.65040743
-0.11119419 0.3809264 0.16134997 0.06582021 0.15306081 0.0066816695 0.1756185 0.21710226
-0.15340161 0.106270306 0.3062553 -0.2881596 0.68244773 0.4144747 0.57837504 -0.42193994
-0.47274163 0.17854287 0.47500816 0.43540284 -0.42192698 -0.42202184 0.0050526997 0.110431455
0.6182266 0.21227887 0.20941502 0.031751186 -0.29585683 0.11159208 0.3508676 0.50769395
0.16244377 0.18450093 0.39445493 -0.056564514 -0.033587325 0.63945323 0.6585969 0.51973754
-0.07957316 -0.2424915 0.5274729 0.264116 0.38584605 0.6583059 0.54196626 0.19245064
0.55043894 0.42899275 -0.32836044 -0.29563636 0.30588552 0.41902897 0.5749751 0.4964505
0.6777788 -0.028800216 -0.30457184 0.4453367 0.11029687 0.34609208 0.14243987 0.47423273
0.37926582 0.5582875 0.48725715 0.47585312 0.12589255 0.34530386 -0.28987324 0.6521146
0.436651 0.3814934 -0.31896052 0.19644003 0.6137503 0.4098337 0.6034265 -0.26753026
0.4732652 0.4156905 -0.11409332 -0.25147146 -0.25383544 -0.39901572 0.3641887 0.40703803
0.2618006 0.79857093 -0.5664512 -0.29790553 0.5761516 0.31174096 0.681012 0.68782234
0.6352756 -0.17614135 0.23260684 0.42364636 0.49047306 0.49923304 -0.0014668196 0.58545095
0.5549758 0.1671775 -0.32820797 0.58421475 0.37001315 -0.15536316 -0.3732046 -0.0277335
0.03179534 0.46707106 0.24100618 -0.1587164 0.5076769 0.5268427 0.41073826 0.19870365
0.38204193 -0.2856141 0.3812503 0.30650505 0.39556396 -0.3635345 0.25941363 0.41688806
0.4859881 0.34614518 0.2661612 0.2750821 0.3757916 -0.009479909 0.3119594 -0.3951822
-0.21060176 -0.5139388 0.55850595 -0.3573442 -0.39581975 0.5606416 0.39939633 -0.5534773
0.57497853 0.6473225 -0.24550694 -0.06199148 0.5748551 -0.18808708 -0.4396065 -0.26472163
-0.3106416 -0.3983393 -0.29962963 -0.5478485 0.53678155 -0.37041196 0.4533089 0.5453488
-0.23356101 0.5187525 -0.11970889 0.6971262 0.58949405 -0.19426668 0.5439635 0.4956834
0.5463458 0.5892092 0.7335856 -0.27574763 0.45742992 -0.18578568 0.19901827 -0.42230308
0.34165508 -0.45736212 0.56310076 -0.1469423 -0.1467717 -0.25442338 0.006121889 0.4433837
0.44808027 0.46169168 -0.3065054 -0.308592 0.21217047 0.4066431 -0.28069612 -0.324992
0.39728904 -0.34663564 0.52970153 -0.103617415 -0.23680939 0.52659005 0.6185927 0.58763266
-0.39224258 0.48182094 -0.17681906 -0.048504118 0.1822651 0.227588 0.48891923 -0.0075755105
-0.08398267 0.48714507 0.24252704 -0.19383384 0.43711042 0.36810443 -0.15403174 0.4480663
-0.14521939 -0.19986092 -0.38469282 -0.7170924 0.39981747 0.59082335 -0.26184013 0.2585243
0.38425592 0.41686943 0.35418957 0.47470158 0.41745088 -0.40188932 -0.24750122 0.58867824
0.04350233 -0.27730337 0.26260787 0.4069142 0.22337489 -0.7171196 0.15575546 0.5861652

l1.bias f4 [8]
00000000: 3a01 d83e 0638 4a3f 3576 6e3f 7b95 373f
00000010: c6cb 513f 2452 d43e bb19 ea3e a178 523f
0.42188436 0.78991735 0.9314912 0.71712464 0.8195156 0.41468918 0.45722756 0.82215315

l2.weight f4 [8, 8]
00000000: ec5e 0f3f 11a0 523f 5761 42bf a195 b13f
00000010: b6e1 8cbe 194c cb3e 3d2c d13e 2c3e 9f3f
00000020: 26a1 7f3f 4476 3c3f 8736 a0bf 0912 32bf
00000030: 23a5 ab3e 6df3 4e3f 2fb1 c1be 2547 ba3e
00000040: 130a 063f eb5c b7be c8a5 6a3f 33a5 11be
00000050: 6436 a03f fc56 a23f 6b95 8d3f 3516 86bf
00000060: a6bd c4be d6a0 8c3f 8195 bb3f 880f 8d3e
00000070: 6b7e f03e d04f 1ebf b048 55bf 79cf 993f
00000080: d519 a1be c5ea 0b3e e142 163e 02f8 e3bd
00000090: 7342 1b3d 5c1c 86be 5f27 86bd c870 76be
000000a0: 3dac 083e 745a 3d3f c460 dbbe e80f 2dbf
000000b0: 461b 923f a884 df3d 7af5 05bf e086 f53e
000000c0: eb02 bd3f 2220 313f a497 1bbf fe17 753e
000000d0: eba9 133e 39de 703f 22cc 5abe c241 8bbd
000000e0: 6205 d4bd fd67 97bd e5d0 debc 7eae a8be
000000f0: 9356 153e fa0f 763e febc 97be f0cf cabe
0.56004214 0.8227549 -0.7592978 1.3873788 -0.27515954 0.39706495 0.40854064 1.2440848
0.9985527 0.7361796 -1.251664 -0.6955877 0.33524427 0.8084019 -0.37830493 0.36382404
0.5235912 -0.35813078 0.9165921 -0.14223175 1.2516599 1.2682796 1.1061224 -1.0475527
-0.3842594 1.0986583 1.4655 0.27550912 0.4697145 -0.61840534 -0.8331404 1.2016441
-0.3146502 0.13663776 0.1467395 -0.11131288 0.037905168 -0.2619351 -0.06550478 -0.2406646
0.13346954 0.73966146 -0.42847264 -0.67602396 1.1414573 0.10913974 -0.5232769 0.47954464
1.4766515 0.69189656 -0.6077826 0.23934934 0.14420287 0.94089085 -0.21366933 -0.06799652
-0.10352589 -0.07392881 -0.027199218 -0.32945627 0.14583807 0.24029532 -0.29636377 -0.3961177

l2.bias f4 [8]
00000000: 50f4 0d3f 92c9 37be d58f 153f 73a9 5f3f
00000010: ca5d a5be e6a5 8fbe 5b5c c4be f27d 9bbe
0.55450916 -0.17947987 0.58422595 0.87367934 -0.32298118 -0.28056258 -0.38351712 -0.30369526

l3.weight f4 [9, 8]
00000000: bc41 61be db57 3d3f e1ee d3be ee3c 9abe
00000010: f9cb 97be df73 fd3e 115e fcbc 12af 97be
00000020: 36b9 a73e af3e cbbd 1b93 9ebf 670c 0a3e
00000030: f199 b3bd f924 0b3f e0b4 4ebe 9368 eebd
00000040: 398c 90bf 8eaa acbe 3361 783f dbb0 29bd
00000050: ced7 c0bd c090 9ebf 25f5 92bf 7161 963e
00000060: 687b 5a3e 2759 57bf fa4c 28be bafa b53e
00000070: 0a63 613e 27d8 b1bf 7048 263e 1493 a23d
00000080: 8fd8 36bf 29ba 7dbf 4698 7c3e bf68 463f
00000090: ec0b 20be e194 093f 254e 84bf 22a8 273e
000000a0: 37bc ff3e 2809 39bf bf7a b0bf ee81 713f
000000b0: 4c36 eabc ef7d 8bbf bd5d bbbf c5d0 043d
000000c0: eda6 cd3e 2fb1 633e 9df8 0ebe 493c 82bf
000000d0: 78cf 9cbe dcf0 1abf 0468 923e cc6f 093d
000000e0: 71c7 0dbf e376 7f3d cf37 ef3e e7fb 00bf
000000f0: b032 a3bd 5c19 343e 8734 8a3d 432f 01be
00000100: 997f 043f 47a9 a1bf a4fb 343f 3def 8abf
00000110: 71cc 7d3e 1565 8fbf fd98 6fbe f341 07be
-0.21997732 0.7396218 -0.41393188 -0.3012461 -0.29647806 0.49502465 -0.030806573 -0.29625756
0.32758492 -0.09924065 -1.2388643 0.13481294 -0.08769596 0.5435329 -0.20186186 -0.1164104
-1.1292793 -0.33723873 0.97023314 -0.04142843 -0.094161615 -1.2387924 -1.1481062 0.29371217
0.21336138 -0.8412041 -0.16435614 0.35542852 0.22010437 -1.389409 0.1623857 0.07938209
-0.7142419 -0.9911218 0.24667463 0.7750358 -0.15629548 0.53742796 -1.0336348 0.16372731
0.49948284 -0.72279596 -1.3787459 0.9433888 -0.028590344 -1.0897807 -1.4637982 0.03242566
0.40166417 0.22235559 -0.13962026 -1.0174648 -0.30627036 -0.6052377 0.28594983 0.033553883
-0.5538245 0.06236924 0.46722266 -0.5038437 -0.07968652 0.17587799 0.067483 -0.12615685
0.517572 -1.2629784 0.70696473 -1.085426 0.2478502 -1.1202723 -0.23398204 -0.13208751

l3.bias f4 [9]
00000000: aacd e4be 53ae bbbe bfe3 413e d4af 9fbe
00000010: 904c 373c ef85 143f 287f d63d 4eae d9be
00000020: 877c 4d3e
-0.4468816 -0.36656436 0.18934534 -0.31188834 0.0111876875 0.58016866 0.10473472 -0.42515796
0.20067035
